…
          callbacks:                 [<tensorflow.python.keras.callbacks.EarlyStopping object at 0x7fd608021a20>, <tensorflow.python.keras.callbacks.ModelCheckpoint object at 0x7fd608021ac8>, <tensorflow.python.keras.callbacks.CSVLogger object at 0x7fd608021b38>, <tensorflow.python.keras.callbacks.TensorBoard object at 0x7fd608021b70>, <tensorflow.python.keras.callbacks.ProgbarLogger object at 0x7fd608021be0>]
          

Model: "sequential"
_________________________________________________________________
Layer (type)                 Output Shape              Param #   
=================================================================
lstm (LSTM)                  (None, 50)                12600     
_________________________________________________________________
dense (Dense)                (None, 100)               5100      
_________________________________________________________________
activation (Activation)      (None, 100)               0         
_________________________________________________________________
dense_1 (Dense)              (None, 100)               10100     
_________________________________________________________________
activation_1 (Activation)    (None, 100)               0         
_________________________________________________________________
dropout (Dropout)            (None, 100)               0         
_________________________________________________________________
dense_2 (Dense)              (None, 1)                 101       
_________________________________________________________________
activation_2 (Activation)    (None, 1)                 0         
=================================================================
Total params: 27,901
Trainable params: 27,901
Non-trainable params: 0
_________________________________________________________________
MODEL SUMMARY: 

 None
Train on 256885 samples, validate on 237858 samples
Epoch 1/50
Epoch 1/50

Epoch 00001: val_recall improved from -inf to 0.31560, saving model to customer_batches_rnn_best_model.h5
…
          callbacks:                 [<tensorflow.python.keras.callbacks.EarlyStopping object at 0x7fd52e9f79e8>, <tensorflow.python.keras.callbacks.ModelCheckpoint object at 0x7fd5e83bed30>, <tensorflow.python.keras.callbacks.CSVLogger object at 0x7fd5e83bee48>, <tensorflow.python.keras.callbacks.TensorBoard object at 0x7fd5e83bef60>, <tensorflow.python.keras.callbacks.ProgbarLogger object at 0x7fd588096080>]
          

Model: "sequential_10"
_________________________________________________________________
Layer (type)                 Output Shape              Param #   
=================================================================
lstm_10 (LSTM)               (None, 100)               45200     
_________________________________________________________________
dense_30 (Dense)             (None, 100)               10100     
_________________________________________________________________
activation_30 (Activation)   (None, 100)               0         
_________________________________________________________________
dense_31 (Dense)             (None, 100)               10100     
_________________________________________________________________
activation_31 (Activation)   (None, 100)               0         
_________________________________________________________________
dropout_10 (Dropout)         (None, 100)               0         
_________________________________________________________________
dense_32 (Dense)             (None, 1)                 101       
_________________________________________________________________
activation_32 (Activation)   (None, 1)                 0         
=================================================================
Total params: 65,501
Trainable params: 65,501
Non-trainable params: 0
_________________________________________________________________
MODEL SUMMARY: 

 None
Train on 256885 samples, validate on 237858 samples
Epoch 1/50
Epoch 1/50

Epoch 00001: val_recall did not improve from 0.67841
256885/256885 - 131s - loss: 0.0434 -
…
          callbacks:                 [<tensorflow.python.keras.callbacks.EarlyStopping object at 0x7fd52eb09c88>, <tensorflow.python.keras.callbacks.ModelCheckpoint object at 0x7fd52c49a160>, <tensorflow.python.keras.callbacks.CSVLogger object at 0x7fd52f134eb8>, <tensorflow.python.keras.callbacks.TensorBoard object at 0x7fd52f134f60>, <tensorflow.python.keras.callbacks.ProgbarLogger object at 0x7fd52f134a90>]
          

Model: "sequential_40"
_________________________________________________________________
Layer (type)                 Output Shape              Param #   
=================================================================
gru (GRU)                    (None, 50)                9600      
_________________________________________________________________
dense_60 (Dense)             (None, 100)               5100      
_________________________________________________________________
activation_60 (Activation)   (None, 100)               0         
_________________________________________________________________
dense_61 (Dense)             (None, 100)               10100     
_________________________________________________________________
activation_61 (Activation)   (None, 100)               0         
_________________________________________________________________
dropout_20 (Dropout)         (None, 100)               0         
_________________________________________________________________
dense_62 (Dense)             (None, 1)                 101       
_________________________________________________________________
activation_62 (Activation)   (None, 1)                 0         
=================================================================
Total params: 24,901
Trainable params: 24,901
Non-trainable params: 0
_________________________________________________________________
MODEL SUMMARY: 

 None
Train on 256885 samples, validate on 237858 samples
Epoch 1/50
Epoch 1/50

Epoch 00001: val_recall did not improve from 0.73089
256885/256885 - 110s - loss: 0.0452 -
…
          callbacks:                 [<tensorflow.python.keras.callbacks.EarlyStopping object at 0x7fd525e24588>, <tensorflow.python.keras.callbacks.ModelCheckpoint object at 0x7fd525e24080>, <tensorflow.python.keras.callbacks.CSVLogger object at 0x7fd525e24c50>, <tensorflow.python.keras.callbacks.TensorBoard object at 0x7fd525e24ba8>, <tensorflow.python.keras.callbacks.ProgbarLogger object at 0x7fd519942048>]
          

Model: "sequential_50"
_________________________________________________________________
Layer (type)                 Output Shape              Param #   
=================================================================
gru_10 (GRU)                 (None, 100)               34200     
_________________________________________________________________
dense_90 (Dense)             (None, 100)               10100     
_________________________________________________________________
activation_90 (Activation)   (None, 100)               0         
_________________________________________________________________
dense_91 (Dense)             (None, 100)               10100     
_________________________________________________________________
activation_91 (Activation)   (None, 100)               0         
_________________________________________________________________
dropout_30 (Dropout)         (None, 100)               0         
_________________________________________________________________
dense_92 (Dense)             (None, 1)                 101       
_________________________________________________________________
activation_92 (Activation)   (None, 1)                 0         
=================================================================
Total params: 54,501
Trainable params: 54,501
Non-trainable params: 0
_________________________________________________________________
MODEL SUMMARY: 

 None
Train on 256885 samples, validate on 237858 samples
Epoch 1/50
Epoch 1/50

Epoch 00001: val_recall did not improve from 0.73864
256885/256885 - 127s - loss: 0.0426 -
…
          callbacks:                 [<tensorflow.python.keras.callbacks.EarlyStopping object at 0x7fd519cd1d30>, <tensorflow.python.keras.callbacks.ModelCheckpoint object at 0x7fd519b23390>, <tensorflow.python.keras.callbacks.CSVLogger object at 0x7fd519ae8cc0>, <tensorflow.python.keras.callbacks.TensorBoard object at 0x7fd519ae8c88>, <tensorflow.python.keras.callbacks.ProgbarLogger object at 0x7fd519b590b8>]
          

Model: "sequential_80"
_________________________________________________________________
Layer (type)                 Output Shape              Param #   
=================================================================
lstm_60 (LSTM)               (None, 50)                12600     
_________________________________________________________________
dense_120 (Dense)            (None, 200)               10200     
_________________________________________________________________
activation_120 (Activation)  (None, 200)               0         
_________________________________________________________________
dense_121 (Dense)            (None, 200)               40200     
_________________________________________________________________
activation_121 (Activation)  (None, 200)               0         
_________________________________________________________________
dropout_40 (Dropout)         (None, 200)               0         
_________________________________________________________________
dense_122 (Dense)            (None, 1)                 201       
_________________________________________________________________
activation_122 (Activation)  (None, 1)                 0         
=================================================================
Total params: 63,201
Trainable params: 63,201
Non-trainable params: 0
_________________________________________________________________
MODEL SUMMARY: 

 None
Train on 256885 samples, validate on 237858 samples
Epoch 1/50
Epoch 1/50

Epoch 00001: val_recall did not improve from 0.73864
256885/256885 - 107s - loss: 0.0420 -
…
          callbacks:                 [<tensorflow.python.keras.callbacks.EarlyStopping object at 0x7fd52f4789e8>, <tensorflow.python.keras.callbacks.ModelCheckpoint object at 0x7fd4afa44e10>, <tensorflow.python.keras.callbacks.CSVLogger object at 0x7fd4bc19ff98>, <tensorflow.python.keras.callbacks.TensorBoard object at 0x7fd4bc19fbe0>, <tensorflow.python.keras.callbacks.ProgbarLogger object at 0x7fd52e0e1f60>]
          

Model: "sequential_90"
_________________________________________________________________
Layer (type)                 Output Shape              Param #   
=================================================================
lstm_70 (LSTM)               (None, 100)               45200     
_________________________________________________________________
dense_150 (Dense)            (None, 200)               20200     
_________________________________________________________________
activation_150 (Activation)  (None, 200)               0         
_________________________________________________________________
dense_151 (Dense)            (None, 200)               40200     
_________________________________________________________________
activation_151 (Activation)  (None, 200)               0         
_________________________________________________________________
dropout_50 (Dropout)         (None, 200)               0         
_________________________________________________________________
dense_152 (Dense)            (None, 1)                 201       
_________________________________________________________________
activation_152 (Activation)  (None, 1)                 0         
=================================================================
Total params: 105,801
Trainable params: 105,801
Non-trainable params: 0
_________________________________________________________________
MODEL SUMMARY: 

 None
Train on 256885 samples, validate on 237858 samples
Epoch 1/50
Epoch 1/50

Epoch 00001: val_recall did not improve from 0.79465
256885/256885 - 132s - loss: 0.0433
…
          callbacks:                 [<tensorflow.python.keras.callbacks.EarlyStopping object at 0x7fd4b48ea9b0>, <tensorflow.python.keras.callbacks.ModelCheckpoint object at 0x7fd4b48b0eb8>, <tensorflow.python.keras.callbacks.CSVLogger object at 0x7fd4b48b0a58>, <tensorflow.python.keras.callbacks.TensorBoard object at 0x7fd4b48b0fd0>, <tensorflow.python.keras.callbacks.ProgbarLogger object at 0x7fd4b48b0f98>]
          

Model: "sequential_120"
_________________________________________________________________
Layer (type)                 Output Shape              Param #   
=================================================================
gru_60 (GRU)                 (None, 50)                9600      
_________________________________________________________________
dense_180 (Dense)            (None, 200)               10200     
_________________________________________________________________
activation_180 (Activation)  (None, 200)               0         
_________________________________________________________________
dense_181 (Dense)            (None, 200)               40200     
_________________________________________________________________
activation_181 (Activation)  (None, 200)               0         
_________________________________________________________________
dropout_60 (Dropout)         (None, 200)               0         
_________________________________________________________________
dense_182 (Dense)            (None, 1)                 201       
_________________________________________________________________
activation_182 (Activation)  (None, 1)                 0         
=================================================================
Total params: 60,201
Trainable params: 60,201
Non-trainable params: 0
_________________________________________________________________
MODEL SUMMARY: 

 None
Train on 256885 samples, validate on 237858 samples
Epoch 1/50
Epoch 1/50

Epoch 00001: val_recall did not improve from 0.79465
256885/256885 - 111s - loss: 0.0413 -
…
          callbacks:                 [<tensorflow.python.keras.callbacks.EarlyStopping object at 0x7fd4b3f1ae48>, <tensorflow.python.keras.callbacks.ModelCheckpoint object at 0x7fd4b57ba0f0>, <tensorflow.python.keras.callbacks.CSVLogger object at 0x7fd4b52477b8>, <tensorflow.python.keras.callbacks.TensorBoard object at 0x7fd4b1b96dd8>, <tensorflow.python.keras.callbacks.ProgbarLogger object at 0x7fd4b1b3ecc0>]
          

Model: "sequential_130"
_________________________________________________________________
Layer (type)                 Output Shape              Param #   
=================================================================
gru_70 (GRU)                 (None, 100)               34200     
_________________________________________________________________
dense_210 (Dense)            (None, 200)               20200     
_________________________________________________________________
activation_210 (Activation)  (None, 200)               0         
_________________________________________________________________
dense_211 (Dense)            (None, 200)               40200     
_________________________________________________________________
activation_211 (Activation)  (None, 200)               0         
_________________________________________________________________
dropout_70 (Dropout)         (None, 200)               0         
_________________________________________________________________
dense_212 (Dense)            (None, 1)                 201       
_________________________________________________________________
activation_212 (Activation)  (None, 1)                 0         
=================================================================
Total params: 94,801
Trainable params: 94,801
Non-trainable params: 0
_________________________________________________________________
MODEL SUMMARY: 

 None
Train on 256885 samples, validate on 237858 samples
Epoch 1/50
Epoch 1/50

Epoch 00001: val_recall did not improve from 0.79465
256885/256885 - 128s - loss: 0.0405 -
…
