…
          callbacks:                 [<tensorflow.python.keras.callbacks.EarlyStopping object at 0x7f4ae0787ac8>, <tensorflow.python.keras.callbacks.ModelCheckpoint object at 0x7f4ae0787b70>, <tensorflow.python.keras.callbacks.CSVLogger object at 0x7f4ae0787be0>, <tensorflow.python.keras.callbacks.TensorBoard object at 0x7f4ae0787c18>, <tensorflow.python.keras.callbacks.ProgbarLogger object at 0x7f4ae0787c88>]
          

Model: "sequential"
_________________________________________________________________
Layer (type)                 Output Shape              Param #   
=================================================================
lstm (LSTM)                  (None, 50)                12600     
_________________________________________________________________
dense (Dense)                (None, 100)               5100      
_________________________________________________________________
activation (Activation)      (None, 100)               0         
_________________________________________________________________
dense_1 (Dense)              (None, 100)               10100     
_________________________________________________________________
activation_1 (Activation)    (None, 100)               0         
_________________________________________________________________
dropout (Dropout)            (None, 100)               0         
_________________________________________________________________
dense_2 (Dense)              (None, 1)                 101       
_________________________________________________________________
activation_2 (Activation)    (None, 1)                 0         
=================================================================
Total params: 27,901
Trainable params: 27,901
Non-trainable params: 0
_________________________________________________________________
MODEL SUMMARY: 

 None
Train on 256885 samples, validate on 237858 samples
Epoch 1/50
Epoch 1/50

Epoch 00001: val_recall improved from -inf to 0.32335, saving model to customer_batches_rnn_best_model.h5
…
          callbacks:                 [<tensorflow.python.keras.callbacks.EarlyStopping object at 0x7f4a9c466f98>, <tensorflow.python.keras.callbacks.ModelCheckpoint object at 0x7f4a9c466da0>, <tensorflow.python.keras.callbacks.CSVLogger object at 0x7f4a9c466b70>, <tensorflow.python.keras.callbacks.TensorBoard object at 0x7f4a9c466550>, <tensorflow.python.keras.callbacks.ProgbarLogger object at 0x7f4a40747518>]
          

Model: "sequential_10"
_________________________________________________________________
Layer (type)                 Output Shape              Param #   
=================================================================
lstm_10 (LSTM)               (None, 100)               45200     
_________________________________________________________________
dense_30 (Dense)             (None, 100)               10100     
_________________________________________________________________
activation_30 (Activation)   (None, 100)               0         
_________________________________________________________________
dense_31 (Dense)             (None, 100)               10100     
_________________________________________________________________
activation_31 (Activation)   (None, 100)               0         
_________________________________________________________________
dropout_10 (Dropout)         (None, 100)               0         
_________________________________________________________________
dense_32 (Dense)             (None, 1)                 101       
_________________________________________________________________
activation_32 (Activation)   (None, 1)                 0         
=================================================================
Total params: 65,501
Trainable params: 65,501
Non-trainable params: 0
_________________________________________________________________
MODEL SUMMARY: 

 None
Train on 256885 samples, validate on 237858 samples
Epoch 1/50
Epoch 1/50

Epoch 00001: val_recall did not improve from 0.65657
256885/256885 - 132s - loss: 0.0475 -
…
          callbacks:                 [<tensorflow.python.keras.callbacks.EarlyStopping object at 0x7f49eb8eb0f0>, <tensorflow.python.keras.callbacks.ModelCheckpoint object at 0x7f49eab467b8>, <tensorflow.python.keras.callbacks.CSVLogger object at 0x7f49eb8eb7b8>, <tensorflow.python.keras.callbacks.TensorBoard object at 0x7f49eab55550>, <tensorflow.python.keras.callbacks.ProgbarLogger object at 0x7f49eab55c50>]
          

Model: "sequential_40"
_________________________________________________________________
Layer (type)                 Output Shape              Param #   
=================================================================
gru (GRU)                    (None, 50)                9600      
_________________________________________________________________
dense_60 (Dense)             (None, 100)               5100      
_________________________________________________________________
activation_60 (Activation)   (None, 100)               0         
_________________________________________________________________
dense_61 (Dense)             (None, 100)               10100     
_________________________________________________________________
activation_61 (Activation)   (None, 100)               0         
_________________________________________________________________
dropout_20 (Dropout)         (None, 100)               0         
_________________________________________________________________
dense_62 (Dense)             (None, 1)                 101       
_________________________________________________________________
activation_62 (Activation)   (None, 1)                 0         
=================================================================
Total params: 24,901
Trainable params: 24,901
Non-trainable params: 0
_________________________________________________________________
MODEL SUMMARY: 

 None
Train on 256885 samples, validate on 237858 samples
Epoch 1/50
Epoch 1/50

Epoch 00001: val_recall did not improve from 0.69391
256885/256885 - 111s - loss: 0.0445 -
…
          callbacks:                 [<tensorflow.python.keras.callbacks.EarlyStopping object at 0x7f49eb503208>, <tensorflow.python.keras.callbacks.ModelCheckpoint object at 0x7f49eb503278>, <tensorflow.python.keras.callbacks.CSVLogger object at 0x7f49eb503550>, <tensorflow.python.keras.callbacks.TensorBoard object at 0x7f49eb503da0>, <tensorflow.python.keras.callbacks.ProgbarLogger object at 0x7f49ea3ae550>]
          

Model: "sequential_50"
_________________________________________________________________
Layer (type)                 Output Shape              Param #   
=================================================================
gru_10 (GRU)                 (None, 100)               34200     
_________________________________________________________________
dense_90 (Dense)             (None, 100)               10100     
_________________________________________________________________
activation_90 (Activation)   (None, 100)               0         
_________________________________________________________________
dense_91 (Dense)             (None, 100)               10100     
_________________________________________________________________
activation_91 (Activation)   (None, 100)               0         
_________________________________________________________________
dropout_30 (Dropout)         (None, 100)               0         
_________________________________________________________________
dense_92 (Dense)             (None, 1)                 101       
_________________________________________________________________
activation_92 (Activation)   (None, 1)                 0         
=================================================================
Total params: 54,501
Trainable params: 54,501
Non-trainable params: 0
_________________________________________________________________
MODEL SUMMARY: 

 None
Train on 256885 samples, validate on 237858 samples
Epoch 1/50
Epoch 1/50

Epoch 00001: val_recall did not improve from 0.73054
256885/256885 - 128s - loss: 0.0411 -
…
          callbacks:                 [<tensorflow.python.keras.callbacks.EarlyStopping object at 0x7f49e8f32c50>, <tensorflow.python.keras.callbacks.ModelCheckpoint object at 0x7f49e8d874e0>, <tensorflow.python.keras.callbacks.CSVLogger object at 0x7f49e8d4ddd8>, <tensorflow.python.keras.callbacks.TensorBoard object at 0x7f49e8d4d9e8>, <tensorflow.python.keras.callbacks.ProgbarLogger object at 0x7f49e8d4df28>]
          

Model: "sequential_80"
_________________________________________________________________
Layer (type)                 Output Shape              Param #   
=================================================================
lstm_60 (LSTM)               (None, 50)                12600     
_________________________________________________________________
dense_120 (Dense)            (None, 200)               10200     
_________________________________________________________________
activation_120 (Activation)  (None, 200)               0         
_________________________________________________________________
dense_121 (Dense)            (None, 200)               40200     
_________________________________________________________________
activation_121 (Activation)  (None, 200)               0         
_________________________________________________________________
dropout_40 (Dropout)         (None, 200)               0         
_________________________________________________________________
dense_122 (Dense)            (None, 1)                 201       
_________________________________________________________________
activation_122 (Activation)  (None, 1)                 0         
=================================================================
Total params: 63,201
Trainable params: 63,201
Non-trainable params: 0
_________________________________________________________________
MODEL SUMMARY: 

 None
Train on 256885 samples, validate on 237858 samples
Epoch 1/50
Epoch 1/50

Epoch 00001: val_recall did not improve from 0.73054
256885/256885 - 108s - loss: 0.0417 -
…
          callbacks:                 [<tensorflow.python.keras.callbacks.EarlyStopping object at 0x7f49d792a828>, <tensorflow.python.keras.callbacks.ModelCheckpoint object at 0x7f496b85fdd8>, <tensorflow.python.keras.callbacks.CSVLogger object at 0x7f49d408a9b0>, <tensorflow.python.keras.callbacks.TensorBoard object at 0x7f49d408a710>, <tensorflow.python.keras.callbacks.ProgbarLogger object at 0x7f49d417a5f8>]
          

Model: "sequential_90"
_________________________________________________________________
Layer (type)                 Output Shape              Param #   
=================================================================
lstm_70 (LSTM)               (None, 100)               45200     
_________________________________________________________________
dense_150 (Dense)            (None, 200)               20200     
_________________________________________________________________
activation_150 (Activation)  (None, 200)               0         
_________________________________________________________________
dense_151 (Dense)            (None, 200)               40200     
_________________________________________________________________
activation_151 (Activation)  (None, 200)               0         
_________________________________________________________________
dropout_50 (Dropout)         (None, 200)               0         
_________________________________________________________________
dense_152 (Dense)            (None, 1)                 201       
_________________________________________________________________
activation_152 (Activation)  (None, 1)                 0         
=================================================================
Total params: 105,801
Trainable params: 105,801
Non-trainable params: 0
_________________________________________________________________
MODEL SUMMARY: 

 None
Train on 256885 samples, validate on 237858 samples
Epoch 1/50
Epoch 1/50

Epoch 00001: val_recall did not improve from 0.73124
256885/256885 - 132s - loss: 0.0423
…
          callbacks:                 [<tensorflow.python.keras.callbacks.EarlyStopping object at 0x7f496a46ea90>, <tensorflow.python.keras.callbacks.ModelCheckpoint object at 0x7f496a499b00>, <tensorflow.python.keras.callbacks.CSVLogger object at 0x7f496a4999b0>, <tensorflow.python.keras.callbacks.TensorBoard object at 0x7f496a499a20>, <tensorflow.python.keras.callbacks.ProgbarLogger object at 0x7f496a499c88>]
          

Model: "sequential_120"
_________________________________________________________________
Layer (type)                 Output Shape              Param #   
=================================================================
gru_60 (GRU)                 (None, 50)                9600      
_________________________________________________________________
dense_180 (Dense)            (None, 200)               10200     
_________________________________________________________________
activation_180 (Activation)  (None, 200)               0         
_________________________________________________________________
dense_181 (Dense)            (None, 200)               40200     
_________________________________________________________________
activation_181 (Activation)  (None, 200)               0         
_________________________________________________________________
dropout_60 (Dropout)         (None, 200)               0         
_________________________________________________________________
dense_182 (Dense)            (None, 1)                 201       
_________________________________________________________________
activation_182 (Activation)  (None, 1)                 0         
=================================================================
Total params: 60,201
Trainable params: 60,201
Non-trainable params: 0
_________________________________________________________________
MODEL SUMMARY: 

 None
Train on 256885 samples, validate on 237858 samples
Epoch 1/50
Epoch 1/50

Epoch 00001: val_recall did not improve from 0.73124
256885/256885 - 112s - loss: 0.0418 -
…
          callbacks:                 [<tensorflow.python.keras.callbacks.EarlyStopping object at 0x7f49c3cf6be0>, <tensorflow.python.keras.callbacks.ModelCheckpoint object at 0x7f4969be23c8>, <tensorflow.python.keras.callbacks.CSVLogger object at 0x7f4969be2c18>, <tensorflow.python.keras.callbacks.TensorBoard object at 0x7f4963a1c3c8>, <tensorflow.python.keras.callbacks.ProgbarLogger object at 0x7f49d534d400>]
          

Model: "sequential_130"
_________________________________________________________________
Layer (type)                 Output Shape              Param #   
=================================================================
gru_70 (GRU)                 (None, 100)               34200     
_________________________________________________________________
dense_210 (Dense)            (None, 200)               20200     
_________________________________________________________________
activation_210 (Activation)  (None, 200)               0         
_________________________________________________________________
dense_211 (Dense)            (None, 200)               40200     
_________________________________________________________________
activation_211 (Activation)  (None, 200)               0         
_________________________________________________________________
dropout_70 (Dropout)         (None, 200)               0         
_________________________________________________________________
dense_212 (Dense)            (None, 1)                 201       
_________________________________________________________________
activation_212 (Activation)  (None, 1)                 0         
=================================================================
Total params: 94,801
Trainable params: 94,801
Non-trainable params: 0
_________________________________________________________________
MODEL SUMMARY: 

 None
Train on 256885 samples, validate on 237858 samples
Epoch 1/50
Epoch 1/50

Epoch 00001: val_recall did not improve from 0.73124
256885/256885 - 129s - loss: 0.0408 -
…
