…
          callbacks:                 [<tensorflow.python.keras.callbacks.EarlyStopping object at 0x7ff39032cef0>, <tensorflow.python.keras.callbacks.ModelCheckpoint object at 0x7ff39032cf98>, <tensorflow.python.keras.callbacks.CSVLogger object at 0x7ff39032cfd0>, <tensorflow.python.keras.callbacks.TensorBoard object at 0x7ff390039080>, <tensorflow.python.keras.callbacks.ProgbarLogger object at 0x7ff3900390f0>]
          

Model: "sequential"
_________________________________________________________________
Layer (type)                 Output Shape              Param #   
=================================================================
lstm (LSTM)                  (None, 50)                12600     
_________________________________________________________________
dense (Dense)                (None, 200)               10200     
_________________________________________________________________
activation (Activation)      (None, 200)               0         
_________________________________________________________________
dense_1 (Dense)              (None, 200)               40200     
_________________________________________________________________
activation_1 (Activation)    (None, 200)               0         
_________________________________________________________________
dropout (Dropout)            (None, 200)               0         
_________________________________________________________________
dense_2 (Dense)              (None, 1)                 201       
_________________________________________________________________
activation_2 (Activation)    (None, 1)                 0         
=================================================================
Total params: 63,201
Trainable params: 63,201
Non-trainable params: 0
_________________________________________________________________
MODEL SUMMARY: 

 None
Train on 256885 samples, validate on 237858 samples
Epoch 1/50
Epoch 1/50

Epoch 00001: val_recall improved from inf to 0.24868, saving model to customer_batches_rnn_best_model.h5
…
          callbacks:                 [<tensorflow.python.keras.callbacks.EarlyStopping object at 0x7ff3300e0fd0>, <tensorflow.python.keras.callbacks.ModelCheckpoint object at 0x7ff35458dd68>, <tensorflow.python.keras.callbacks.CSVLogger object at 0x7ff3300d2588>, <tensorflow.python.keras.callbacks.TensorBoard object at 0x7ff2b518e3c8>, <tensorflow.python.keras.callbacks.ProgbarLogger object at 0x7ff2d856d048>]
          

Model: "sequential_10"
_________________________________________________________________
Layer (type)                 Output Shape              Param #   
=================================================================
lstm_10 (LSTM)               (None, 100)               45200     
_________________________________________________________________
dense_30 (Dense)             (None, 200)               20200     
_________________________________________________________________
activation_30 (Activation)   (None, 200)               0         
_________________________________________________________________
dense_31 (Dense)             (None, 200)               40200     
_________________________________________________________________
activation_31 (Activation)   (None, 200)               0         
_________________________________________________________________
dropout_10 (Dropout)         (None, 200)               0         
_________________________________________________________________
dense_32 (Dense)             (None, 1)                 201       
_________________________________________________________________
activation_32 (Activation)   (None, 1)                 0         
=================================================================
Total params: 105,801
Trainable params: 105,801
Non-trainable params: 0
_________________________________________________________________
MODEL SUMMARY: 

 None
Train on 256885 samples, validate on 237858 samples
Epoch 1/50
Epoch 1/50

Epoch 00001: val_recall did not improve from 0.14688
256885/256885 - 132s - loss: 0.0435
…
          callbacks:                 [<tensorflow.python.keras.callbacks.EarlyStopping object at 0x7ff2b574b9b0>, <tensorflow.python.keras.callbacks.ModelCheckpoint object at 0x7ff2b76540f0>, <tensorflow.python.keras.callbacks.CSVLogger object at 0x7ff2b7654ef0>, <tensorflow.python.keras.callbacks.TensorBoard object at 0x7ff2b7654e48>, <tensorflow.python.keras.callbacks.ProgbarLogger object at 0x7ff2b7654eb8>]
          

Model: "sequential_40"
_________________________________________________________________
Layer (type)                 Output Shape              Param #   
=================================================================
gru (GRU)                    (None, 50)                9600      
_________________________________________________________________
dense_60 (Dense)             (None, 200)               10200     
_________________________________________________________________
activation_60 (Activation)   (None, 200)               0         
_________________________________________________________________
dense_61 (Dense)             (None, 200)               40200     
_________________________________________________________________
activation_61 (Activation)   (None, 200)               0         
_________________________________________________________________
dropout_20 (Dropout)         (None, 200)               0         
_________________________________________________________________
dense_62 (Dense)             (None, 1)                 201       
_________________________________________________________________
activation_62 (Activation)   (None, 1)                 0         
=================================================================
Total params: 60,201
Trainable params: 60,201
Non-trainable params: 0
_________________________________________________________________
MODEL SUMMARY: 

 None
Train on 256885 samples, validate on 237858 samples
Epoch 1/50
Epoch 1/50

Epoch 00001: val_recall did not improve from 0.14688
256885/256885 - 110s - loss: 0.0425 -
…
          callbacks:                 [<tensorflow.python.keras.callbacks.EarlyStopping object at 0x7ff310436a20>, <tensorflow.python.keras.callbacks.ModelCheckpoint object at 0x7ff2b56eec88>, <tensorflow.python.keras.callbacks.CSVLogger object at 0x7ff2b55cecc0>, <tensorflow.python.keras.callbacks.TensorBoard object at 0x7ff31017fb00>, <tensorflow.python.keras.callbacks.ProgbarLogger object at 0x7ff310411198>]
          

Model: "sequential_50"
_________________________________________________________________
Layer (type)                 Output Shape              Param #   
=================================================================
gru_10 (GRU)                 (None, 100)               34200     
_________________________________________________________________
dense_90 (Dense)             (None, 200)               20200     
_________________________________________________________________
activation_90 (Activation)   (None, 200)               0         
_________________________________________________________________
dense_91 (Dense)             (None, 200)               40200     
_________________________________________________________________
activation_91 (Activation)   (None, 200)               0         
_________________________________________________________________
dropout_30 (Dropout)         (None, 200)               0         
_________________________________________________________________
dense_92 (Dense)             (None, 1)                 201       
_________________________________________________________________
activation_92 (Activation)   (None, 1)                 0         
=================================================================
Total params: 94,801
Trainable params: 94,801
Non-trainable params: 0
_________________________________________________________________
MODEL SUMMARY: 

 None
Train on 256885 samples, validate on 237858 samples
Epoch 1/50
Epoch 1/50

Epoch 00001: val_recall did not improve from 0.14688
256885/256885 - 128s - loss: 0.0413 -
…
          callbacks:                 [<tensorflow.python.keras.callbacks.EarlyStopping object at 0x7ff2b5ce5358>, <tensorflow.python.keras.callbacks.ModelCheckpoint object at 0x7ff2b4e8f2b0>, <tensorflow.python.keras.callbacks.CSVLogger object at 0x7ff2b4e8f978>, <tensorflow.python.keras.callbacks.TensorBoard object at 0x7ff293fc9d68>, <tensorflow.python.keras.callbacks.ProgbarLogger object at 0x7ff293fc9ba8>]
          

Model: "sequential_80"
_________________________________________________________________
Layer (type)                 Output Shape              Param #   
=================================================================
lstm_60 (LSTM)               (None, 50)                12600     
_________________________________________________________________
dense_120 (Dense)            (None, 300)               15300     
_________________________________________________________________
activation_120 (Activation)  (None, 300)               0         
_________________________________________________________________
dense_121 (Dense)            (None, 300)               90300     
_________________________________________________________________
activation_121 (Activation)  (None, 300)               0         
_________________________________________________________________
dropout_40 (Dropout)         (None, 300)               0         
_________________________________________________________________
dense_122 (Dense)            (None, 1)                 301       
_________________________________________________________________
activation_122 (Activation)  (None, 1)                 0         
=================================================================
Total params: 118,501
Trainable params: 118,501
Non-trainable params: 0
_________________________________________________________________
MODEL SUMMARY: 

 None
Train on 256885 samples, validate on 237858 samples
Epoch 1/50
Epoch 1/50

Epoch 00001: val_recall did not improve from 0.14688
256885/256885 - 108s - loss: 0.0425
…
          callbacks:                 [<tensorflow.python.keras.callbacks.EarlyStopping object at 0x7ff23ef84208>, <tensorflow.python.keras.callbacks.ModelCheckpoint object at 0x7ff23ef431d0>, <tensorflow.python.keras.callbacks.CSVLogger object at 0x7ff2a1d53208>, <tensorflow.python.keras.callbacks.TensorBoard object at 0x7ff2a1d53710>, <tensorflow.python.keras.callbacks.ProgbarLogger object at 0x7ff23e406278>]
          

Model: "sequential_90"
_________________________________________________________________
Layer (type)                 Output Shape              Param #   
=================================================================
lstm_70 (LSTM)               (None, 100)               45200     
_________________________________________________________________
dense_150 (Dense)            (None, 300)               30300     
_________________________________________________________________
activation_150 (Activation)  (None, 300)               0         
_________________________________________________________________
dense_151 (Dense)            (None, 300)               90300     
_________________________________________________________________
activation_151 (Activation)  (None, 300)               0         
_________________________________________________________________
dropout_50 (Dropout)         (None, 300)               0         
_________________________________________________________________
dense_152 (Dense)            (None, 1)                 301       
_________________________________________________________________
activation_152 (Activation)  (None, 1)                 0         
=================================================================
Total params: 166,101
Trainable params: 166,101
Non-trainable params: 0
_________________________________________________________________
MODEL SUMMARY: 

 None
Train on 256885 samples, validate on 237858 samples
Epoch 1/50
Epoch 1/50

Epoch 00001: val_recall did not improve from 0.14688
256885/256885 - 135s - loss: 0.0428
…
          callbacks:                 [<tensorflow.python.keras.callbacks.EarlyStopping object at 0x7ff2b5166ba8>, <tensorflow.python.keras.callbacks.ModelCheckpoint object at 0x7ff292b1b278>, <tensorflow.python.keras.callbacks.CSVLogger object at 0x7ff292b1b080>, <tensorflow.python.keras.callbacks.TensorBoard object at 0x7ff23ebd35c0>, <tensorflow.python.keras.callbacks.ProgbarLogger object at 0x7ff23b54d278>]
          

Model: "sequential_120"
_________________________________________________________________
Layer (type)                 Output Shape              Param #   
=================================================================
gru_60 (GRU)                 (None, 50)                9600      
_________________________________________________________________
dense_180 (Dense)            (None, 300)               15300     
_________________________________________________________________
activation_180 (Activation)  (None, 300)               0         
_________________________________________________________________
dense_181 (Dense)            (None, 300)               90300     
_________________________________________________________________
activation_181 (Activation)  (None, 300)               0         
_________________________________________________________________
dropout_60 (Dropout)         (None, 300)               0         
_________________________________________________________________
dense_182 (Dense)            (None, 1)                 301       
_________________________________________________________________
activation_182 (Activation)  (None, 1)                 0         
=================================================================
Total params: 115,501
Trainable params: 115,501
Non-trainable params: 0
_________________________________________________________________
MODEL SUMMARY: 

 None
Train on 256885 samples, validate on 237858 samples
Epoch 1/50
Epoch 1/50

Epoch 00001: val_recall did not improve from 0.14688
256885/256885 - 113s - loss: 0.0414
…
          callbacks:                 [<tensorflow.python.keras.callbacks.EarlyStopping object at 0x7ff234672160>, <tensorflow.python.keras.callbacks.ModelCheckpoint object at 0x7ff2a00980b8>, <tensorflow.python.keras.callbacks.CSVLogger object at 0x7ff29373a470>, <tensorflow.python.keras.callbacks.TensorBoard object at 0x7ff29373ab00>, <tensorflow.python.keras.callbacks.ProgbarLogger object at 0x7ff23db673c8>]
          

Model: "sequential_130"
_________________________________________________________________
Layer (type)                 Output Shape              Param #   
=================================================================
gru_70 (GRU)                 (None, 100)               34200     
_________________________________________________________________
dense_210 (Dense)            (None, 300)               30300     
_________________________________________________________________
activation_210 (Activation)  (None, 300)               0         
_________________________________________________________________
dense_211 (Dense)            (None, 300)               90300     
_________________________________________________________________
activation_211 (Activation)  (None, 300)               0         
_________________________________________________________________
dropout_70 (Dropout)         (None, 300)               0         
_________________________________________________________________
dense_212 (Dense)            (None, 1)                 301       
_________________________________________________________________
activation_212 (Activation)  (None, 1)                 0         
=================================================================
Total params: 155,101
Trainable params: 155,101
Non-trainable params: 0
_________________________________________________________________
MODEL SUMMARY: 

 None
Train on 256885 samples, validate on 237858 samples
Epoch 1/50
Epoch 1/50

Epoch 00001: val_recall did not improve from 0.14688
256885/256885 - 130s - loss: 0.0410
…
